…
dding_dim=384)
mLSTMLayerConfig(proj_factor=2.0, round_proj_up_dim_up=True, round_proj_up_to_multiple_of=64, _proj_up_dim=384, conv1d_kernel_size=3, qkv_proj_blocksize=4, num_heads=4, bidirectional=False, quaddirectional=False, sharedirs=False, alternation='bidirectional', layerscale=None, use_conv2d=True, use_v_conv=False, share_conv=True, embedding_dim=192, bias=True, dropout=0.0, context_length=144, _num_blocks=1, _inner_embedding_dim=384)
05-02 02:43:03 I drop_path_rate: 0.0
05-02 02:43:03 I model:
VisLSTM(
  (pooling): Bilateral(aggregate=flatten)
  (patch_embed): VitPatchEmbed(
    (proj): Conv2d(3, 192, kernel_size=(16, 16), stride=(16, 16))
    (norm): Identity()
  )
  (pos_embed): VitPosEmbed2d()
  (xlstm): xLSTMBlockStack(
    (blocks): ModuleList(
      (0-23): 24 x mLSTMBlock(
        (drop_path1): DropPath(drop_prob=0.000)
        (xlstm_norm): LayerNorm()
        (xlstm): mLSTMLayer(
          (proj_up): Linear(in_features=192, out_features=768, bias=True)
          (conv1d): SequenceConv2d(384, 384, kernel_size=(3, 3), stride=(1, 1), padding=(1, 1), groups=384)
          (conv_act_fn): SiLU()
          (mlstm_cell): mLSTMCell(
            (linear_i): Conv1d(384, 384, kernel_size=(1,), stride=(1,), groups=384, bias=False)
            (linear_f): Conv1d(384, 384, kernel_size=(1,), stride=(1,), groups=384, bias=False)
            (linear_h): Conv1d(384, 384, kernel_size=(1,), stride=(1,), groups=384, bias=False)
          )
          (ogate_act_fn): SiLU()
          (proj_down): Linear(in_features=384, out_features=192, bias=True)
          (dropout): Dropout(p=0.0, inplace=False)
          (layerscale): Identity()
        )
      )
    )
    (post_blocks_norm): LayerNorm()
  )
  (head): Sequential(
    (0): LayerNorm((384,), eps=1e-06, elementwise_affine=True)
    (1): Linear(in_features=384, out_features=10, bias=True)
  )
)
05-02 02:43:03 I vislstm initialize optimizer
05-02 02:43:03 I base lr: 1e-3
05-02 02:43:03 I scaled lr: 2e-3
05-02 02:43:03 I lr_scaler=LinearLrScaler(divisor=1024)
05-02 02:43:03 I lr_scale_factor=2048
05-02 02:43:03 I exclude_bias_from_wd=True exclude_norm_from_wd=True param_group_modifiers=[WeightDecayByNameModifier(name=pos_embed.embed)]
05-02 02:43:03 I using 2 param groups:
…
