…
ng_dim=1536)
mLSTMLayerConfig(proj_factor=2.0, round_proj_up_dim_up=True, round_proj_up_to_multiple_of=64, _proj_up_dim=1536, conv1d_kernel_size=3, qkv_proj_blocksize=4, num_heads=4, bidirectional=False, quaddirectional=False, sharedirs=False, alternation='bidirectional', layerscale=None, use_conv2d=True, use_v_conv=False, share_conv=True, embedding_dim=768, bias=True, dropout=0.0, context_length=196, _num_blocks=1, _inner_embedding_dim=1536)
11-05 16:55:41 I drop_path_rate: 0.2
11-05 16:55:41 I model:
VisLSTM(
  (pooling): Bilateral(aggregate=flatten)
  (patch_embed): VitPatchEmbed(
    (proj): Conv2d(3, 768, kernel_size=(16, 16), stride=(16, 16))
    (norm): Identity()
  )
  (pos_embed): VitPosEmbed2d()
  (xlstm): xLSTMBlockStack(
    (blocks): ModuleList(
      (0-23): 24 x mLSTMBlock(
        (drop_path1): DropPath(drop_prob=0.200)
        (xlstm_norm): LayerNorm()
        (xlstm): mLSTMLayer(
          (proj_up): Linear(in_features=768, out_features=3072, bias=True)
          (conv1d): SequenceConv2d(1536, 1536, kernel_size=(3, 3), stride=(1, 1), padding=(1, 1), groups=1536)
          (conv_act_fn): SiLU()
          (mlstm_cell): mLSTMCell(
            (linear_h): FeedForward(
              (linear1): Linear(in_features=1536, out_features=8, bias=True)
              (activation): ReLU()
              (dropout): Dropout(p=0.1, inplace=False)
              (linear2): Linear(in_features=8, out_features=1536, bias=True)
            )
            (linear_i): FeedForward(
              (linear1): Linear(in_features=1536, out_features=8, bias=True)
              (activation): ReLU()
              (dropout): Dropout(p=0.1, inplace=False)
              (linear2): Linear(in_features=8, out_features=1536, bias=True)
            )
            (linear_f): FeedForward(
              (linear1): Linear(in_features=1536, out_features=8, bias=True)
              (activation): ReLU()
              (dropout): Dropout(p=0.1, inplace=False)
              (linear2): Linear(in_features=8, out_features=1536, bias=True)
            )
          )
          (ogate_act_fn): SiLU()
          (proj_down): Linear(in_features=1536, out_features=768, bias=True)
          (dropout): Dropout(p=0.0, inplace=False)
          (layerscale): Identity()
        )
      )
    )
    (post_blocks_norm): LayerNorm()
  )
  (head): Sequential(
    (0): LayerNorm((1536,), eps=1e-06, elementwise_affine=True)
    (1): Linear(in_features=1536, out_features=1000, bias=True)
  )
)
11-05 16:55:41 I vislstm initialize optimizer
11-05 16:55:41 I base lr: 1e-5
11-05 16:55:41 I scaled lr: 2.5e-6
11-05 16:55:41 I lr_scaler=LinearLrScaler(divisor=1024)
11-05 16:55:41 I lr_scale_factor=256
11-05 16:55:41 I exclude_bias_from_wd=True exclude_norm_from_wd=True param_group_modifiers=[WeightDecayByNameModifier(name=pos_embed.embed)]
11-05 16:55:41 I using 2 param groups:
…
